…
[07/01 08:33:30] detectron2 INFO: Full config saved to ./speaq_checkpoints/config.yaml
[07/01 08:33:30] d2.utils.env INFO: Using a generated random seed 30484368
[07/01 08:33:31] d2.engine.defaults INFO: Model:
IterativeRelationDetr(
  (detr): IterativeRelationDETR(
    (transformer): IterativeRelationTransformer(
      (encoder): TransformerEncoder(
        (layers): ModuleList(
          (0): TransformerEncoderLayer(
            (self_attn): MultiheadAttention(
              (out_proj): NonDynamicallyQuantizableLinear(in_features=256, out_features=256, bias=True)
            )
            (linear1): Linear(in_features=256, out_features=2048, bias=True)
            (dropout): Dropout(p=0.1, inplace=False)
            (linear2): Linear(in_features=2048, out_features=256, bias=True)
            (norm1): LayerNorm((256,), eps=1e-05, elementwise_affine=True)
            (norm2): LayerNorm((256,), eps=1e-05, elementwise_affine=True)
            (dropout1): Dropout(p=0.1, inplace=False)
            (dropout2): Dropout(p=0.1, inplace=False)
          )
          (1): TransformerEncoderLayer(
            (self_attn): MultiheadAttention(
              (out_proj): NonDynamicallyQuantizableLinear(in_features=256, out_features=256, bias=True)
            )
            (linear1): Linear(in_features=256, out_features=2048, bias=True)
            (dropout): Dropout(p=0.1, inplace=False)
            (linear2): Linear(in_features=2048, out_features=256, bias=True)
            (norm1): LayerNorm((256,), eps=1e-05, elementwise_affine=True)
            (norm2): LayerNorm((256,), eps=1e-05, elementwise_affine=True)
            (dropout1): Dropout(p=0.1, inplace=False)
            (dropout2): Dropout(p=0.1, inplace=False)
          )
          (2): TransformerEncoderLayer(
            (self_attn): MultiheadAttention(
              (out_proj): NonDynamicallyQuantizableLinear(in_features=256, out_features=256, bias=True)
            )
            (linear1): Linear(in_features=256, out_features=2048, bias=True)
            (dropout): Dropout(p=0.1, inplace=False)
            (linear2): Linear(in_features=2048, out_features=256, bias=True)
            (norm1): LayerNorm((256,), eps=1e-05, elementwise_affine=True)
            (norm2): LayerNorm((256,), eps=1e-05, elementwise_affine=True)
            (dropout1): Dropout(p=0.1, inplace=False)
            (dropout2): Dropout(p=0.1, inplace=False)
          )
          (3): TransformerEncoderLayer(
            (self_attn): MultiheadAttention(
              (out_proj): NonDynamicallyQuantizableLinear(in_features=256, out_features=256, bias=True)
            )
            (linear1): Linear(in_features=256, out_features=2048, bias=True)
            (dropout): Dropout(p=0.1, inplace=False)
            (linear2): Linear(in_features=2048, out_features=256, bias=True)
            (norm1): LayerNorm((256,), eps=1e-05, elementwise_affine=True)
            (norm2): LayerNorm((256,), eps=1e-05, elementwise_affine=True)
            (dropout1): Dropout(p=0.1, inplace=False)
            (dropout2): Dropout(p=0.1, inplace=False)
          )
          (4): TransformerEncoderLayer(
            (self_attn): MultiheadAttention(
              (out_proj): NonDynamicallyQuantizableLinear(in_features=256, out_features=256, bias=True)
            )
            (linear1): Linear(in_features=256, out_features=2048, bias=True)
            (dropout): Dropout(p=0.1, inplace=False)
            (linear2): Linear(in_features=2048, out_features=256, bias=True)
            (norm1): LayerNorm((256,), eps=1e-05, elementwise_affine=True)
            (norm2): LayerNorm((256,), eps=1e-05, elementwise_affine=True)
            (dropout1): Dropout(p=0.1, inplace=False)
            (dropout2): Dropout(p=0.1, inplace=False)
          )
          (5): TransformerEncoderLayer(
            (self_attn): MultiheadAttention(
              (out_proj): NonDynamicallyQuantizableLinear(in_features=256, out_features=256, bias=True)
            )
            (linear1): Linear(in_features=256, out_features=2048, bias=True)
            (dropout): Dropout(p=0.1, inplace=False)
            (linear2): Linear(in_features=2048, out_features=256, bias=True)
            (norm1): LayerNorm((256,), eps=1e-05, elementwise_affine=True)
            (norm2): LayerNorm((256,), eps=1e-05, elementwise_affine=True)
            (dropout1): Dropout(p=0.1, inplace=False)
            (dropout2): Dropout(p=0.1, inplace=False)
          )
        )
      )
      (decoder): IterativeRelationDecoder(
        (subject_layers): ModuleList(
          (0): TransformerDecoderLayer(
            (self_attn): MultiheadAttention(
              (out_proj): NonDynamicallyQuantizableLinear(in_features=256, out_features=256, bias=True)
            )
            (multihead_attn): MultiheadAttention(
              (out_proj): NonDynamicallyQuantizableLinear(in_features=256, out_features=256, bias=True)
            )
            (linear1): Linear(in_features=256, out_features=2048, bias=True)
            (dropout): Dropout(p=0.1, inplace=False)
            (linear2): Linear(in_features=2048, out_features=256, bias=True)
            (norm1): LayerNorm((256,), eps=1e-05, elementwise_affine=True)
            (norm2): LayerNorm((256,), eps=1e-05, elementwise_affine=True)
            (norm3): LayerNorm((256,), eps=1e-05, elementwise_affine=True)
            (dropout1): Dropout(p=0.1, inplace=False)
            (dropout2): Dropout(p=0.1, inplace=False)
            (dropout3): Dropout(p=0.1, inplace=False)
          )
          (1): TransformerDecoderLayer(
            (self_attn): MultiheadAttention(
              (out_proj): NonDynamicallyQuantizableLinear(in_features=256, out_features=256, bias=True)
            )
            (multihead_attn): MultiheadAttention(
              (out_proj): NonDynamicallyQuantizableLinear(in_features=256, out_features=256, bias=True)
            )
            (linear1): Linear(in_features=256, out_features=2048, bias=True)
            (dropout): Dropout(p=0.1, inplace=False)
            (linear2): Linear(in_features=2048, out_features=256, bias=True)
            (norm1): LayerNorm((256,), eps=1e-05, elementwise_affine=True)
            (norm2): LayerNorm((256,), eps=1e-05, elementwise_affine=True)
            (norm3): LayerNorm((256,), eps=1e-05, elementwise_affine=True)
            (dropout1): Dropout(p=0.1, inplace=False)
            (dropout2): Dropout(p=0.1, inplace=False)
            (dropout3): Dropout(p=0.1, inplace=False)
          )
          (2): TransformerDecoderLayer(
            (self_attn): MultiheadAttention(
              (out_proj): NonDynamicallyQuantizableLinear(in_features=256, out_features=256, bias=True)
            )
            (multihead_attn): MultiheadAttention(
              (out_proj): NonDynamicallyQuantizableLinear(in_features=256, out_features=256, bias=True)
            )
            (linear1): Linear(in_features=256, out_features=2048, bias=True)
            (dropout): Dropout(p=0.1, inplace=False)
            (linear2): Linear(in_features=2048, out_features=256, bias=True)
            (norm1): LayerNorm((256,), eps=1e-05, elementwise_affine=True)
            (norm2): LayerNorm((256,), eps=1e-05, elementwise_affine=True)
            (norm3): LayerNorm((256,), eps=1e-05, elementwise_affine=True)
            (dropout1): Dropout(p=0.1, inplace=False)
            (dropout2): Dropout(p=0.1, inplace=False)
            (dropout3): Dropout(p=0.1, inplace=False)
          )
          (3): TransformerDecoderLayer(
            (self_attn): MultiheadAttention(
              (out_proj): NonDynamicallyQuantizableLinear(in_features=256, out_features=256, bias=True)
            )
            (multihead_attn): MultiheadAttention(
              (out_proj): NonDynamicallyQuantizableLinear(in_features=256, out_features=256, bias=True)
            )
            (linear1): Linear(in_features=256, out_features=2048, bias=True)
            (dropout): Dropout(p=0.1, inplace=False)
            (linear2): Linear(in_features=2048, out_features=256, bias=True)
            (norm1): LayerNorm((256,), eps=1e-05, elementwise_affine=True)
            (norm2): LayerNorm((256,), eps=1e-05, elementwise_affine=True)
            (norm3): LayerNorm((256,), eps=1e-05, elementwise_affine=True)
            (dropout1): Dropout(p=0.1, inplace=False)
            (dropout2): Dropout(p=0.1, inplace=False)
            (dropout3): Dropout(p=0.1, inplace=False)
          )
          (4): TransformerDecoderLayer(
            (self_attn): MultiheadAttention(
              (out_proj): NonDynamicallyQuantizableLinear(in_features=256, out_features=256, bias=True)
            )
            (multihead_attn): MultiheadAttention(
              (out_proj): NonDynamicallyQuantizableLinear(in_features=256, out_features=256, bias=True)
            )
            (linear1): Linear(in_features=256, out_features=2048, bias=True)
            (dropout): Dropout(p=0.1, inplace=False)
            (linear2): Linear(in_features=2048, out_features=256, bias=True)
            (norm1): LayerNorm((256,), eps=1e-05, elementwise_affine=True)
            (norm2): LayerNorm((256,), eps=1e-05, elementwise_affine=True)
            (norm3): LayerNorm((256,), eps=1e-05, elementwise_affine=True)
            (dropout1): Dropout(p=0.1, inplace=False)
            (dropout2): Dropout(p=0.1, inplace=False)
            (dropout3): Dropout(p=0.1, inplace=False)
          )
          (5): TransformerDecoderLayer(
            (self_attn): MultiheadAttention(
              (out_proj): NonDynamicallyQuantizableLinear(in_features=256, out_features=256, bias=True)
            )
            (multihead_attn): MultiheadAttention(
              (out_proj): NonDynamicallyQuantizableLinear(in_features=256, out_features=256, bias=True)
            )
            (linear1): Linear(in_features=256, out_features=2048, bias=True)
            (dropout): Dropout(p=0.1, inplace=False)
            (linear2): Linear(in_features=2048, out_features=256, bias=True)
            (norm1): LayerNorm((256,), eps=1e-05, elementwise_affine=True)
            (norm2): LayerNorm((256,), eps=1e-05, elementwise_affine=True)
            (norm3): LayerNorm((256,), eps=1e-05, elementwise_affine=True)
            (dropout1): Dropout(p=0.1, inplace=False)
            (dropout2): Dropout(p=0.1, inplace=False)
            (dropout3): Dropout(p=0.1, inplace=False)
          )
        )
        (object_layers): ModuleList(
          (0): TransformerDecoderLayer(
            (self_attn): MultiheadAttention(
              (out_proj): NonDynamicallyQuantizableLinear(in_features=256, out_features=256, bias=True)
            )
            (multihead_attn): MultiheadAttention(
              (out_proj): NonDynamicallyQuantizableLinear(in_features=256, out_features=256, bias=True)
            )
            (linear1): Linear(in_features=256, out_features=2048, bias=True)
            (dropout): Dropout(p=0.1, inplace=False)
            (linear2): Linear(in_features=2048, out_features=256, bias=True)
            (norm1): LayerNorm((256,), eps=1e-05, elementwise_affine=True)
            (norm2): LayerNorm((256,), eps=1e-05, elementwise_affine=True)
            (norm3): LayerNorm((256,), eps=1e-05, elementwise_affine=True)
            (dropout1): Dropout(p=0.1, inplace=False)
            (dropout2): Dropout(p=0.1, inplace=False)
            (dropout3): Dropout(p=0.1, inplace=False)
          )
          (1): TransformerDecoderLayer(
            (self_attn): MultiheadAttention(
              (out_proj): NonDynamicallyQuantizableLinear(in_features=256, out_features=256, bias=True)
            )
            (multihead_attn): MultiheadAttention(
              (out_proj): NonDynamicallyQuantizableLinear(in_features=256, out_features=256, bias=True)
            )
            (linear1): Linear(in_features=256, out_features=2048, bias=True)
            (dropout): Dropout(p=0.1, inplace=False)
            (linear2): Linear(in_features=2048, out_features=256, bias=True)
            (norm1): LayerNorm((256,), eps=1e-05, elementwise_affine=True)
            (norm2): LayerNorm((256,), eps=1e-05, elementwise_affine=True)
            (norm3): LayerNorm((256,), eps=1e-05, elementwise_affine=True)
            (dropout1): Dropout(p=0.1, inplace=False)
            (dropout2): Dropout(p=0.1, inplace=False)
            (dropout3): Dropout(p=0.1, inplace=False)
          )
          (2): TransformerDecoderLayer(
            (self_attn): MultiheadAttention(
              (out_proj): NonDynamicallyQuantizableLinear(in_features=256, out_features=256, bias=True)
            )
            (multihead_attn): MultiheadAttention(
              (out_proj): NonDynamicallyQuantizableLinear(in_features=256, out_features=256, bias=True)
            )
            (linear1): Linear(in_features=256, out_features=2048, bias=True)
            (dropout): Dropout(p=0.1, inplace=False)
            (linear2): Linear(in_features=2048, out_features=256, bias=True)
            (norm1): LayerNorm((256,), eps=1e-05, elementwise_affine=True)
            (norm2): LayerNorm((256,), eps=1e-05, elementwise_affine=True)
            (norm3): LayerNorm((256,), eps=1e-05, elementwise_affine=True)
            (dropout1): Dropout(p=0.1, inplace=False)
            (dropout2): Dropout(p=0.1, inplace=False)
            (dropout3): Dropout(p=0.1, inplace=False)
          )
          (3): TransformerDecoderLayer(
            (self_attn): MultiheadAttention(
              (out_proj): NonDynamicallyQuantizableLinear(in_features=256, out_features=256, bias=True)
            )
            (multihead_attn): MultiheadAttention(
              (out_proj): NonDynamicallyQuantizableLinear(in_features=256, out_features=256, bias=True)
            )
            (linear1): Linear(in_features=256, out_features=2048, bias=True)
            (dropout): Dropout(p=0.1, inplace=False)
            (linear2): Linear(in_features=2048, out_features=256, bias=True)
            (norm1): LayerNorm((256,), eps=1e-05, elementwise_affine=True)
            (norm2): LayerNorm((256,), eps=1e-05, elementwise_affine=True)
            (norm3): LayerNorm((256,), eps=1e-05, elementwise_affine=True)
            (dropout1): Dropout(p=0.1, inplace=False)
            (dropout2): Dropout(p=0.1, inplace=False)
            (dropout3): Dropout(p=0.1, inplace=False)
          )
          (4): TransformerDecoderLayer(
            (self_attn): MultiheadAttention(
              (out_proj): NonDynamicallyQuantizableLinear(in_features=256, out_features=256, bias=True)
            )
            (multihead_attn): MultiheadAttention(
              (out_proj): NonDynamicallyQuantizableLinear(in_features=256, out_features=256, bias=True)
            )
            (linear1): Linear(in_features=256, out_features=2048, bias=True)
            (dropout): Dropout(p=0.1, inplace=False)
            (linear2): Linear(in_features=2048, out_features=256, bias=True)
            (norm1): LayerNorm((256,), eps=1e-05, elementwise_affine=True)
            (norm2): LayerNorm((256,), eps=1e-05, elementwise_affine=True)
            (norm3): LayerNorm((256,), eps=1e-05, elementwise_affine=True)
            (dropout1): Dropout(p=0.1, inplace=False)
            (dropout2): Dropout(p=0.1, inplace=False)
            (dropout3): Dropout(p=0.1, inplace=False)
          )
          (5): TransformerDecoderLayer(
            (self_attn): MultiheadAttention(
              (out_proj): NonDynamicallyQuantizableLinear(in_features=256, out_features=256, bias=True)
            )
            (multihead_attn): MultiheadAttention(
              (out_proj): NonDynamicallyQuantizableLinear(in_features=256, out_features=256, bias=True)
            )
            (linear1): Linear(in_features=256, out_features=2048, bias=True)
            (dropout): Dropout(p=0.1, inplace=False)
            (linear2): Linear(in_features=2048, out_features=256, bias=True)
            (norm1): LayerNorm((256,), eps=1e-05, elementwise_affine=True)
            (norm2): LayerNorm((256,), eps=1e-05, elementwise_affine=True)
            (norm3): LayerNorm((256,), eps=1e-05, elementwise_affine=True)
            (dropout1): Dropout(p=0.1, inplace=False)
            (dropout2): Dropout(p=0.1, inplace=False)
            (dropout3): Dropout(p=0.1, inplace=False)
          )
        )
        (relation_layers): ModuleList(
          (0): TransformerDecoderLayer(
            (self_attn): MultiheadAttention(
              (out_proj): NonDynamicallyQuantizableLinear(in_features=256, out_features=256, bias=True)
            )
            (multihead_attn): MultiheadAttention(
              (out_proj): NonDynamicallyQuantizableLinear(in_features=256, out_features=256, bias=True)
            )
            (linear1): Linear(in_features=256, out_features=2048, bias=True)
            (dropout): Dropout(p=0.1, inplace=False)
            (linear2): Linear(in_features=2048, out_features=256, bias=True)
            (norm1): LayerNorm((256,), eps=1e-05, elementwise_affine=True)
            (norm2): LayerNorm((256,), eps=1e-05, elementwise_affine=True)
            (norm3): LayerNorm((256,), eps=1e-05, elementwise_affine=True)
            (dropout1): Dropout(p=0.1, inplace=False)
            (dropout2): Dropout(p=0.1, inplace=False)
            (dropout3): Dropout(p=0.1, inplace=False)
          )
          (1): TransformerDecoderLayer(
            (self_attn): MultiheadAttention(
              (out_proj): NonDynamicallyQuantizableLinear(in_features=256, out_features=256, bias=True)
            )
            (multihead_attn): MultiheadAttention(
              (out_proj): NonDynamicallyQuantizableLinear(in_features=256, out_features=256, bias=True)
            )
            (linear1): Linear(in_features=256, out_features=2048, bias=True)
            (dropout): Dropout(p=0.1, inplace=False)
            (linear2): Linear(in_features=2048, out_features=256, bias=True)
            (norm1): LayerNorm((256,), eps=1e-05, elementwise_affine=True)
            (norm2): LayerNorm((256,), eps=1e-05, elementwise_affine=True)
            (norm3): LayerNorm((256,), eps=1e-05, elementwise_affine=True)
            (dropout1): Dropout(p=0.1, inplace=False)
            (dropout2): Dropout(p=0.1, inplace=False)
            (dropout3): Dropout(p=0.1, inplace=False)
          )
          (2): TransformerDecoderLayer(
            (self_attn): MultiheadAttention(
              (out_proj): NonDynamicallyQuantizableLinear(in_features=256, out_features=256, bias=True)
            )
            (multihead_attn): MultiheadAttention(
              (out_proj): NonDynamicallyQuantizableLinear(in_features=256, out_features=256, bias=True)
            )
            (linear1): Linear(in_features=256, out_features=2048, bias=True)
            (dropout): Dropout(p=0.1, inplace=False)
            (linear2): Linear(in_features=2048, out_features=256, bias=True)
            (norm1): LayerNorm((256,), eps=1e-05, elementwise_affine=True)
            (norm2): LayerNorm((256,), eps=1e-05, elementwise_affine=True)
            (norm3): LayerNorm((256,), eps=1e-05, elementwise_affine=True)
            (dropout1): Dropout(p=0.1, inplace=False)
            (dropout2): Dropout(p=0.1, inplace=False)
            (dropout3): Dropout(p=0.1, inplace=False)
          )
          (3): TransformerDecoderLayer(
            (self_attn): MultiheadAttention(
              (out_proj): NonDynamicallyQuantizableLinear(in_features=256, out_features=256, bias=True)
            )
            (multihead_attn): MultiheadAttention(
              (out_proj): NonDynamicallyQuantizableLinear(in_features=256, out_features=256, bias=True)
            )
            (linear1): Linear(in_features=256, out_features=2048, bias=True)
            (dropout): Dropout(p=0.1, inplace=False)
            (linear2): Linear(in_features=2048, out_features=256, bias=True)
            (norm1): LayerNorm((256,), eps=1e-05, elementwise_affine=True)
            (norm2): LayerNorm((256,), eps=1e-05, elementwise_affine=True)
            (norm3): LayerNorm((256,), eps=1e-05, elementwise_affine=True)
            (dropout1): Dropout(p=0.1, inplace=False)
            (dropout2): Dropout(p=0.1, inplace=False)
            (dropout3): Dropout(p=0.1, inplace=False)
          )
          (4): TransformerDecoderLayer(
            (self_attn): MultiheadAttention(
              (out_proj): NonDynamicallyQuantizableLinear(in_features=256, out_features=256, bias=True)
            )
            (multihead_attn): MultiheadAttention(
              (out_proj): NonDynamicallyQuantizableLinear(in_features=256, out_features=256, bias=True)
            )
            (linear1): Linear(in_features=256, out_features=2048, bias=True)
            (dropout): Dropout(p=0.1, inplace=False)
            (linear2): Linear(in_features=2048, out_features=256, bias=True)
            (norm1): LayerNorm((256,), eps=1e-05, elementwise_affine=True)
            (norm2): LayerNorm((256,), eps=1e-05, elementwise_affine=True)
            (norm3): LayerNorm((256,), eps=1e-05, elementwise_affine=True)
            (dropout1): Dropout(p=0.1, inplace=False)
            (dropout2): Dropout(p=0.1, inplace=False)
            (dropout3): Dropout(p=0.1, inplace=False)
          )
          (5): TransformerDecoderLayer(
            (self_attn): MultiheadAttention(
              (out_proj): NonDynamicallyQuantizableLinear(in_features=256, out_features=256, bias=True)
            )
            (multihead_attn): MultiheadAttention(
              (out_proj): NonDynamicallyQuantizableLinear(in_features=256, out_features=256, bias=True)
            )
            (linear1): Linear(in_features=256, out_features=2048, bias=True)
            (dropout): Dropout(p=0.1, inplace=False)
            (linear2): Linear(in_features=2048, out_features=256, bias=True)
            (norm1): LayerNorm((256,), eps=1e-05, elementwise_affine=True)
            (norm2): LayerNorm((256,), eps=1e-05, elementwise_affine=True)
            (norm3): LayerNorm((256,), eps=1e-05, elementwise_affine=True)
            (dropout1): Dropout(p=0.1, inplace=False)
            (dropout2): Dropout(p=0.1, inplace=False)
            (dropout3): Dropout(p=0.1, inplace=False)
          )
        )
        (subject_norm): LayerNorm((256,), eps=1e-05, elementwise_affine=True)
        (relation_norm): LayerNorm((256,), eps=1e-05, elementwise_affine=True)
        (object_pos_attn): ModuleList(
          (0): MultiheadAttention(
            (out_proj): NonDynamicallyQuantizableLinear(in_features=256, out_features=256, bias=True)
          )
          (1): MultiheadAttention(
            (out_proj): NonDynamicallyQuantizableLinear(in_features=256, out_features=256, bias=True)
          )
          (2): MultiheadAttention(
            (out_proj): NonDynamicallyQuantizableLinear(in_features=256, out_features=256, bias=True)
          )
          (3): MultiheadAttention(
            (out_proj): NonDynamicallyQuantizableLinear(in_features=256, out_features=256, bias=True)
          )
          (4): MultiheadAttention(
            (out_proj): NonDynamicallyQuantizableLinear(in_features=256, out_features=256, bias=True)
          )
          (5): MultiheadAttention(
            (out_proj): NonDynamicallyQuantizableLinear(in_features=256, out_features=256, bias=True)
          )
        )
        (object_pos_linear): ModuleList(
          (0): Linear(in_features=256, out_features=256, bias=True)
          (1): Linear(in_features=256, out_features=256, bias=True)
          (2): Linear(in_features=256, out_features=256, bias=True)
          (3): Linear(in_features=256, out_features=256, bias=True)
          (4): Linear(in_features=256, out_features=256, bias=True)
          (5): Linear(in_features=256, out_features=256, bias=True)
        )
        (object_pos_dropout): ModuleList(
          (0): Dropout(p=0.1, inplace=False)
          (1): Dropout(p=0.1, inplace=False)
          (2): Dropout(p=0.1, inplace=False)
          (3): Dropout(p=0.1, inplace=False)
          (4): Dropout(p=0.1, inplace=False)
          (5): Dropout(p=0.1, inplace=False)
        )
        (relation_pos_attn): ModuleList(
…
            (out_proj): NonDynamicallyQuantizableLinear(in_features=256, out_features=256, bias=True)
          )
          (2): MultiheadAttention(
            (out_proj): NonDynamicallyQuantizableLinear(in_features=256, out_features=256, bias=True)
          )
          (3): MultiheadAttention(
            (out_proj): NonDynamicallyQuantizableLinear(in_features=256, out_features=256, bias=True)
          )
          (4): MultiheadAttention(
            (out_proj): NonDynamicallyQuantizableLinear(in_features=256, out_features=256, bias=True)
          )
        )
        (subject_graph_query_residual): ModuleList(
          (0): Linear(in_features=256, out_features=256, bias=True)
          (1): Linear(in_features=256, out_features=256, bias=True)
          (2): Linear(in_features=256, out_features=256, bias=True)
          (3): Linear(in_features=256, out_features=256, bias=True)
          (4): Linear(in_features=256, out_features=256, bias=True)
        )
        (subject_graph_query_norm): ModuleList(
          (0): LayerNorm((256,), eps=1e-05, elementwise_affine=True)
          (1): LayerNorm((256,), eps=1e-05, elementwise_affine=True)
          (2): LayerNorm((256,), eps=1e-05, elementwise_affine=True)
          (3): LayerNorm((256,), eps=1e-05, elementwise_affine=True)
          (4): LayerNorm((256,), eps=1e-05, elementwise_affine=True)
        )
        (subject_graph_query_dropout): ModuleList(
          (0): Dropout(p=0.1, inplace=False)
          (1): Dropout(p=0.1, inplace=False)
          (2): Dropout(p=0.1, inplace=False)
          (3): Dropout(p=0.1, inplace=False)
          (4): Dropout(p=0.1, inplace=False)
        )
        (object_graph_query_attn): ModuleList(
          (0): MultiheadAttention(
…
            (out_proj): NonDynamicallyQuantizableLinear(in_features=256, out_features=256, bias=True)
          )
          (2): MultiheadAttention(
            (out_proj): NonDynamicallyQuantizableLinear(in_features=256, out_features=256, bias=True)
          )
          (3): MultiheadAttention(
            (out_proj): NonDynamicallyQuantizableLinear(in_features=256, out_features=256, bias=True)
          )
          (4): MultiheadAttention(
            (out_proj): NonDynamicallyQuantizableLinear(in_features=256, out_features=256, bias=True)
          )
        )
        (relation_graph_query_residual): ModuleList(
          (0): Linear(in_features=256, out_features=256, bias=True)
          (1): Linear(in_features=256, out_features=256, bias=True)
          (2): Linear(in_features=256, out_features=256, bias=True)
          (3): Linear(in_features=256, out_features=256, bias=True)
          (4): Linear(in_features=256, out_features=256, bias=True)
        )
        (relation_graph_query_norm): ModuleList(
          (0): LayerNorm((256,), eps=1e-05, elementwise_affine=True)
          (1): LayerNorm((256,), eps=1e-05, elementwise_affine=True)
          (2): LayerNorm((256,), eps=1e-05, elementwise_affine=True)
          (3): LayerNorm((256,), eps=1e-05, elementwise_affine=True)
          (4): LayerNorm((256,), eps=1e-05, elementwise_affine=True)
        )
        (relation_graph_query_dropout): ModuleList(
          (0): Dropout(p=0.1, inplace=False)
          (1): Dropout(p=0.1, inplace=False)
          (2): Dropout(p=0.1, inplace=False)
          (3): Dropout(p=0.1, inplace=False)
          (4): Dropout(p=0.1, inplace=False)
        )
      )
      (object_embed): Linear(in_features=256, out_features=151, bias=True)
      (object_bbox_coords): MLP(
        (layers): ModuleList(
          (0): Linear(in_features=256, out_features=256, bias=True)
          (1): Linear(in_features=256, out_features=256, bias=True)
          (2): Linear(in_features=256, out_features=4, bias=True)
        )
      )
      (relation_embed): Linear(in_features=256, out_features=51, bias=True)
    )
    (query_embed): Embedding(300, 256)
    (input_proj): Conv2d(2048, 256, kernel_size=(1, 1), stride=(1, 1))
    (backbone): Joiner(
      (0): MaskedBackbone(
        (backbone): ResNet(
          (stem): BasicStem(
            (conv1): Conv2d(
              3, 64, kernel_size=(7, 7), stride=(2, 2), padding=(3, 3), bias=False
              (norm): FrozenBatchNorm2d(num_features=64, eps=1e-05)
            )
          )
          (res2): Sequential(
            (0): BottleneckBlock(
              (shortcut): Conv2d(
                64, 256, kernel_size=(1, 1), stride=(1, 1), bias=False
                (norm): FrozenBatchNorm2d(num_features=256, eps=1e-05)
              )
              (conv1): Conv2d(
                64, 64, kernel_size=(1, 1), stride=(1, 1), bias=False
                (norm): FrozenBatchNorm2d(num_features=64, eps=1e-05)
              )
              (conv2): Conv2d(
                64, 64, kernel_size=(3, 3), stride=(1, 1), padding=(1, 1), bias=False
                (norm): FrozenBatchNorm2d(num_features=64, eps=1e-05)
              )
              (conv3): Conv2d(
                64, 256, kernel_size=(1, 1), stride=(1, 1), bias=False
                (norm): FrozenBatchNorm2d(num_features=256, eps=1e-05)
              )
            )
            (1): BottleneckBlock(
              (conv1): Conv2d(
                256, 64, kernel_size=(1, 1), stride=(1, 1), bias=False
                (norm): FrozenBatchNorm2d(num_features=64, eps=1e-05)
              )
              (conv2): Conv2d(
                64, 64, kernel_size=(3, 3), stride=(1, 1), padding=(1, 1), bias=False
                (norm): FrozenBatchNorm2d(num_features=64, eps=1e-05)
              )
              (conv3): Conv2d(
                64, 256, kernel_size=(1, 1), stride=(1, 1), bias=False
                (norm): FrozenBatchNorm2d(num_features=256, eps=1e-05)
              )
            )
            (2): BottleneckBlock(
              (conv1): Conv2d(
                256, 64, kernel_size=(1, 1), stride=(1, 1), bias=False
                (norm): FrozenBatchNorm2d(num_features=64, eps=1e-05)
              )
              (conv2): Conv2d(
                64, 64, kernel_size=(3, 3), stride=(1, 1), padding=(1, 1), bias=False
                (norm): FrozenBatchNorm2d(num_features=64, eps=1e-05)
              )
              (conv3): Conv2d(
                64, 256, kernel_size=(1, 1), stride=(1, 1), bias=False
                (norm): FrozenBatchNorm2d(num_features=256, eps=1e-05)
              )
            )
          )
          (res3): Sequential(
            (0): BottleneckBlock(
              (shortcut): Conv2d(
                256, 512, kernel_size=(1, 1), stride=(2, 2), bias=False
                (norm): FrozenBatchNorm2d(num_features=512, eps=1e-05)
              )
              (conv1): Conv2d(
                256, 128, kernel_size=(1, 1), stride=(1, 1), bias=False
                (norm): FrozenBatchNorm2d(num_features=128, eps=1e-05)
              )
              (conv2): Conv2d(
                128, 128, kernel_size=(3, 3), stride=(2, 2), padding=(1, 1), bias=False
                (norm): FrozenBatchNorm2d(num_features=128, eps=1e-05)
              )
              (conv3): Conv2d(
                128, 512, kernel_size=(1, 1), stride=(1, 1), bias=False
                (norm): FrozenBatchNorm2d(num_features=512, eps=1e-05)
              )
            )
            (1): BottleneckBlock(
              (conv1): Conv2d(
                512, 128, kernel_size=(1, 1), stride=(1, 1), bias=False
                (norm): FrozenBatchNorm2d(num_features=128, eps=1e-05)
              )
              (conv2): Conv2d(
                128, 128, kernel_size=(3, 3), stride=(1, 1), padding=(1, 1), bias=False
                (norm): FrozenBatchNorm2d(num_features=128, eps=1e-05)
              )
              (conv3): Conv2d(
                128, 512, kernel_size=(1, 1), stride=(1, 1), bias=False
                (norm): FrozenBatchNorm2d(num_features=512, eps=1e-05)
              )
            )
            (2): BottleneckBlock(
              (conv1): Conv2d(
                512, 128, kernel_size=(1, 1), stride=(1, 1), bias=False
                (norm): FrozenBatchNorm2d(num_features=128, eps=1e-05)
              )
              (conv2): Conv2d(
                128, 128, kernel_size=(3, 3), stride=(1, 1), padding=(1, 1), bias=False
                (norm): FrozenBatchNorm2d(num_features=128, eps=1e-05)
              )
              (conv3): Conv2d(
                128, 512, kernel_size=(1, 1), stride=(1, 1), bias=False
                (norm): FrozenBatchNorm2d(num_features=512, eps=1e-05)
              )
            )
            (3): BottleneckBlock(
              (conv1): Conv2d(
                512, 128, kernel_size=(1, 1), stride=(1, 1), bias=False
                (norm): FrozenBatchNorm2d(num_features=128, eps=1e-05)
              )
              (conv2): Conv2d(
                128, 128, kernel_size=(3, 3), stride=(1, 1), padding=(1, 1), bias=False
                (norm): FrozenBatchNorm2d(num_features=128, eps=1e-05)
              )
              (conv3): Conv2d(
                128, 512, kernel_size=(1, 1), stride=(1, 1), bias=False
                (norm): FrozenBatchNorm2d(num_features=512, eps=1e-05)
              )
            )
          )
          (res4): Sequential(
            (0): BottleneckBlock(
              (shortcut): Conv2d(
                512, 1024, kernel_size=(1, 1), stride=(2, 2), bias=False
                (norm): FrozenBatchNorm2d(num_features=1024, eps=1e-05)
              )
              (conv1): Conv2d(
                512, 256, kernel_size=(1, 1), stride=(1, 1), bias=False
                (norm): FrozenBatchNorm2d(num_features=256, eps=1e-05)
              )
              (conv2): Conv2d(
                256, 256, kernel_size=(3, 3), stride=(2, 2), padding=(1, 1), bias=False
                (norm): FrozenBatchNorm2d(num_features=256, eps=1e-05)
              )
              (conv3): Conv2d(
                256, 1024, kernel_size=(1, 1), stride=(1, 1), bias=False
                (norm): FrozenBatchNorm2d(num_features=1024, eps=1e-05)
              )
            )
            (1): BottleneckBlock(
              (conv1): Conv2d(
                1024, 256, kernel_size=(1, 1), stride=(1, 1), bias=False
                (norm): FrozenBatchNorm2d(num_features=256, eps=1e-05)
              )
              (conv2): Conv2d(
                256, 256, kernel_size=(3, 3), stride=(1, 1), padding=(1, 1), bias=False
                (norm): FrozenBatchNorm2d(num_features=256, eps=1e-05)
              )
              (conv3): Conv2d(
                256, 1024, kernel_size=(1, 1), stride=(1, 1), bias=False
                (norm): FrozenBatchNorm2d(num_features=1024, eps=1e-05)
              )
            )
            (2): BottleneckBlock(
              (conv1): Conv2d(
                1024, 256, kernel_size=(1, 1), stride=(1, 1), bias=False
                (norm): FrozenBatchNorm2d(num_features=256, eps=1e-05)
              )
              (conv2): Conv2d(
                256, 256, kernel_size=(3, 3), stride=(1, 1), padding=(1, 1), bias=False
                (norm): FrozenBatchNorm2d(num_features=256, eps=1e-05)
              )
              (conv3): Conv2d(
                256, 1024, kernel_size=(1, 1), stride=(1, 1), bias=False
                (norm): FrozenBatchNorm2d(num_features=1024, eps=1e-05)
              )
            )
            (3): BottleneckBlock(
              (conv1): Conv2d(
                1024, 256, kernel_size=(1, 1), stride=(1, 1), bias=False
                (norm): FrozenBatchNorm2d(num_features=256, eps=1e-05)
              )
              (conv2): Conv2d(
                256, 256, kernel_size=(3, 3), stride=(1, 1), padding=(1, 1), bias=False
                (norm): FrozenBatchNorm2d(num_features=256, eps=1e-05)
              )
              (conv3): Conv2d(
                256, 1024, kernel_size=(1, 1), stride=(1, 1), bias=False
                (norm): FrozenBatchNorm2d(num_features=1024, eps=1e-05)
              )
            )
            (4): BottleneckBlock(
              (conv1): Conv2d(
                1024, 256, kernel_size=(1, 1), stride=(1, 1), bias=False
                (norm): FrozenBatchNorm2d(num_features=256, eps=1e-05)
              )
              (conv2): Conv2d(
                256, 256, kernel_size=(3, 3), stride=(1, 1), padding=(1, 1), bias=False
                (norm): FrozenBatchNorm2d(num_features=256, eps=1e-05)
              )
              (conv3): Conv2d(
                256, 1024, kernel_size=(1, 1), stride=(1, 1), bias=False
                (norm): FrozenBatchNorm2d(num_features=1024, eps=1e-05)
              )
            )
            (5): BottleneckBlock(
              (conv1): Conv2d(
                1024, 256, kernel_size=(1, 1), stride=(1, 1), bias=False
                (norm): FrozenBatchNorm2d(num_features=256, eps=1e-05)
              )
              (conv2): Conv2d(
                256, 256, kernel_size=(3, 3), stride=(1, 1), padding=(1, 1), bias=False
                (norm): FrozenBatchNorm2d(num_features=256, eps=1e-05)
              )
              (conv3): Conv2d(
                256, 1024, kernel_size=(1, 1), stride=(1, 1), bias=False
                (norm): FrozenBatchNorm2d(num_features=1024, eps=1e-05)
              )
            )
            (6): BottleneckBlock(
              (conv1): Conv2d(
                1024, 256, kernel_size=(1, 1), stride=(1, 1), bias=False
                (norm): FrozenBatchNorm2d(num_features=256, eps=1e-05)
              )
              (conv2): Conv2d(
                256, 256, kernel_size=(3, 3), stride=(1, 1), padding=(1, 1), bias=False
                (norm): FrozenBatchNorm2d(num_features=256, eps=1e-05)
              )
              (conv3): Conv2d(
                256, 1024, kernel_size=(1, 1), stride=(1, 1), bias=False
                (norm): FrozenBatchNorm2d(num_features=1024, eps=1e-05)
              )
            )
            (7): BottleneckBlock(
              (conv1): Conv2d(
                1024, 256, kernel_size=(1, 1), stride=(1, 1), bias=False
                (norm): FrozenBatchNorm2d(num_features=256, eps=1e-05)
              )
              (conv2): Conv2d(
                256, 256, kernel_size=(3, 3), stride=(1, 1), padding=(1, 1), bias=False
                (norm): FrozenBatchNorm2d(num_features=256, eps=1e-05)
              )
              (conv3): Conv2d(
                256, 1024, kernel_size=(1, 1), stride=(1, 1), bias=False
                (norm): FrozenBatchNorm2d(num_features=1024, eps=1e-05)
              )
            )
            (8): BottleneckBlock(
              (conv1): Conv2d(
                1024, 256, kernel_size=(1, 1), stride=(1, 1), bias=False
                (norm): FrozenBatchNorm2d(num_features=256, eps=1e-05)
              )
              (conv2): Conv2d(
                256, 256, kernel_size=(3, 3), stride=(1, 1), padding=(1, 1), bias=False
                (norm): FrozenBatchNorm2d(num_features=256, eps=1e-05)
              )
              (conv3): Conv2d(
                256, 1024, kernel_size=(1, 1), stride=(1, 1), bias=False
                (norm): FrozenBatchNorm2d(num_features=1024, eps=1e-05)
              )
            )
            (9): BottleneckBlock(
              (conv1): Conv2d(
                1024, 256, kernel_size=(1, 1), stride=(1, 1), bias=False
                (norm): FrozenBatchNorm2d(num_features=256, eps=1e-05)
              )
              (conv2): Conv2d(
                256, 256, kernel_size=(3, 3), stride=(1, 1), padding=(1, 1), bias=False
                (norm): FrozenBatchNorm2d(num_features=256, eps=1e-05)
              )
              (conv3): Conv2d(
                256, 1024, kernel_size=(1, 1), stride=(1, 1), bias=False
                (norm): FrozenBatchNorm2d(num_features=1024, eps=1e-05)
              )
            )
            (10): BottleneckBlock(
              (conv1): Conv2d(
                1024, 256, kernel_size=(1, 1), stride=(1, 1), bias=False
                (norm): FrozenBatchNorm2d(num_features=256, eps=1e-05)
              )
              (conv2): Conv2d(
                256, 256, kernel_size=(3, 3), stride=(1, 1), padding=(1, 1), bias=False
                (norm): FrozenBatchNorm2d(num_features=256, eps=1e-05)
              )
              (conv3): Conv2d(
                256, 1024, kernel_size=(1, 1), stride=(1, 1), bias=False
                (norm): FrozenBatchNorm2d(num_features=1024, eps=1e-05)
              )
            )
            (11): BottleneckBlock(
              (conv1): Conv2d(
                1024, 256, kernel_size=(1, 1), stride=(1, 1), bias=False
                (norm): FrozenBatchNorm2d(num_features=256, eps=1e-05)
              )
              (conv2): Conv2d(
                256, 256, kernel_size=(3, 3), stride=(1, 1), padding=(1, 1), bias=False
                (norm): FrozenBatchNorm2d(num_features=256, eps=1e-05)
              )
              (conv3): Conv2d(
                256, 1024, kernel_size=(1, 1), stride=(1, 1), bias=False
                (norm): FrozenBatchNorm2d(num_features=1024, eps=1e-05)
              )
            )
            (12): BottleneckBlock(
              (conv1): Conv2d(
                1024, 256, kernel_size=(1, 1), stride=(1, 1), bias=False
                (norm): FrozenBatchNorm2d(num_features=256, eps=1e-05)
              )
              (conv2): Conv2d(
                256, 256, kernel_size=(3, 3), stride=(1, 1), padding=(1, 1), bias=False
                (norm): FrozenBatchNorm2d(num_features=256, eps=1e-05)
              )
              (conv3): Conv2d(
                256, 1024, kernel_size=(1, 1), stride=(1, 1), bias=False
                (norm): FrozenBatchNorm2d(num_features=1024, eps=1e-05)
              )
            )
            (13): BottleneckBlock(
              (conv1): Conv2d(
                1024, 256, kernel_size=(1, 1), stride=(1, 1), bias=False
                (norm): FrozenBatchNorm2d(num_features=256, eps=1e-05)
              )
              (conv2): Conv2d(
                256, 256, kernel_size=(3, 3), stride=(1, 1), padding=(1, 1), bias=False
                (norm): FrozenBatchNorm2d(num_features=256, eps=1e-05)
              )
              (conv3): Conv2d(
                256, 1024, kernel_size=(1, 1), stride=(1, 1), bias=False
                (norm): FrozenBatchNorm2d(num_features=1024, eps=1e-05)
              )
            )
            (14): BottleneckBlock(
              (conv1): Conv2d(
                1024, 256, kernel_size=(1, 1), stride=(1, 1), bias=False
                (norm): FrozenBatchNorm2d(num_features=256, eps=1e-05)
              )
              (conv2): Conv2d(
                256, 256, kernel_size=(3, 3), stride=(1, 1), padding=(1, 1), bias=False
                (norm): FrozenBatchNorm2d(num_features=256, eps=1e-05)
              )
              (conv3): Conv2d(
                256, 1024, kernel_size=(1, 1), stride=(1, 1), bias=False
                (norm): FrozenBatchNorm2d(num_features=1024, eps=1e-05)
              )
            )
            (15): BottleneckBlock(
              (conv1): Conv2d(
                1024, 256, kernel_size=(1, 1), stride=(1, 1), bias=False
                (norm): FrozenBatchNorm2d(num_features=256, eps=1e-05)
              )
              (conv2): Conv2d(
                256, 256, kernel_size=(3, 3), stride=(1, 1), padding=(1, 1), bias=False
                (norm): FrozenBatchNorm2d(num_features=256, eps=1e-05)
              )
              (conv3): Conv2d(
                256, 1024, kernel_size=(1, 1), stride=(1, 1), bias=False
                (norm): FrozenBatchNorm2d(num_features=1024, eps=1e-05)
              )
            )
            (16): BottleneckBlock(
              (conv1): Conv2d(
                1024, 256, kernel_size=(1, 1), stride=(1, 1), bias=False
                (norm): FrozenBatchNorm2d(num_features=256, eps=1e-05)
              )
              (conv2): Conv2d(
                256, 256, kernel_size=(3, 3), stride=(1, 1), padding=(1, 1), bias=False
                (norm): FrozenBatchNorm2d(num_features=256, eps=1e-05)
              )
              (conv3): Conv2d(
                256, 1024, kernel_size=(1, 1), stride=(1, 1), bias=False
                (norm): FrozenBatchNorm2d(num_features=1024, eps=1e-05)
              )
            )
            (17): BottleneckBlock(
              (conv1): Conv2d(
                1024, 256, kernel_size=(1, 1), stride=(1, 1), bias=False
                (norm): FrozenBatchNorm2d(num_features=256, eps=1e-05)
              )
              (conv2): Conv2d(
                256, 256, kernel_size=(3, 3), stride=(1, 1), padding=(1, 1), bias=False
                (norm): FrozenBatchNorm2d(num_features=256, eps=1e-05)
              )
              (conv3): Conv2d(
                256, 1024, kernel_size=(1, 1), stride=(1, 1), bias=False
                (norm): FrozenBatchNorm2d(num_features=1024, eps=1e-05)
              )
            )
            (18): BottleneckBlock(
              (conv1): Conv2d(
                1024, 256, kernel_size=(1, 1), stride=(1, 1), bias=False
                (norm): FrozenBatchNorm2d(num_features=256, eps=1e-05)
              )
              (conv2): Conv2d(
                256, 256, kernel_size=(3, 3), stride=(1, 1), padding=(1, 1), bias=False
                (norm): FrozenBatchNorm2d(num_features=256, eps=1e-05)
              )
              (conv3): Conv2d(
                256, 1024, kernel_size=(1, 1), stride=(1, 1), bias=False
                (norm): FrozenBatchNorm2d(num_features=1024, eps=1e-05)
              )
            )
            (19): BottleneckBlock(
              (conv1): Conv2d(
                1024, 256, kernel_size=(1, 1), stride=(1, 1), bias=False
                (norm): FrozenBatchNorm2d(num_features=256, eps=1e-05)
              )
              (conv2): Conv2d(
                256, 256, kernel_size=(3, 3), stride=(1, 1), padding=(1, 1), bias=False
                (norm): FrozenBatchNorm2d(num_features=256, eps=1e-05)
              )
              (conv3): Conv2d(
                256, 1024, kernel_size=(1, 1), stride=(1, 1), bias=False
                (norm): FrozenBatchNorm2d(num_features=1024, eps=1e-05)
              )
            )
            (20): BottleneckBlock(
              (conv1): Conv2d(
                1024, 256, kernel_size=(1, 1), stride=(1, 1), bias=False
                (norm): FrozenBatchNorm2d(num_features=256, eps=1e-05)
              )
              (conv2): Conv2d(
                256, 256, kernel_size=(3, 3), stride=(1, 1), padding=(1, 1), bias=False
                (norm): FrozenBatchNorm2d(num_features=256, eps=1e-05)
              )
              (conv3): Conv2d(
                256, 1024, kernel_size=(1, 1), stride=(1, 1), bias=False
                (norm): FrozenBatchNorm2d(num_features=1024, eps=1e-05)
              )
            )
            (21): BottleneckBlock(
              (conv1): Conv2d(
                1024, 256, kernel_size=(1, 1), stride=(1, 1), bias=False
                (norm): FrozenBatchNorm2d(num_features=256, eps=1e-05)
              )
              (conv2): Conv2d(
                256, 256, kernel_size=(3, 3), stride=(1, 1), padding=(1, 1), bias=False
                (norm): FrozenBatchNorm2d(num_features=256, eps=1e-05)
              )
              (conv3): Conv2d(
                256, 1024, kernel_size=(1, 1), stride=(1, 1), bias=False
                (norm): FrozenBatchNorm2d(num_features=1024, eps=1e-05)
              )
            )
            (22): BottleneckBlock(
              (conv1): Conv2d(
                1024, 256, kernel_size=(1, 1), stride=(1, 1), bias=False
                (norm): FrozenBatchNorm2d(num_features=256, eps=1e-05)
              )
              (conv2): Conv2d(
                256, 256, kernel_size=(3, 3), stride=(1, 1), padding=(1, 1), bias=False
                (norm): FrozenBatchNorm2d(num_features=256, eps=1e-05)
              )
              (conv3): Conv2d(
                256, 1024, kernel_size=(1, 1), stride=(1, 1), bias=False
                (norm): FrozenBatchNorm2d(num_features=1024, eps=1e-05)
              )
            )
          )
          (res5): Sequential(
            (0): BottleneckBlock(
              (shortcut): Conv2d(
                1024, 2048, kernel_size=(1, 1), stride=(2, 2), bias=False
                (norm): FrozenBatchNorm2d(num_features=2048, eps=1e-05)
              )
              (conv1): Conv2d(
                1024, 512, kernel_size=(1, 1), stride=(1, 1), bias=False
                (norm): FrozenBatchNorm2d(num_features=512, eps=1e-05)
              )
              (conv2): Conv2d(
                512, 512, kernel_size=(3, 3), stride=(2, 2), padding=(1, 1), bias=False
                (norm): FrozenBatchNorm2d(num_features=512, eps=1e-05)
              )
              (conv3): Conv2d(
                512, 2048, kernel_size=(1, 1), stride=(1, 1), bias=False
                (norm): FrozenBatchNorm2d(num_features=2048, eps=1e-05)
              )
            )
            (1): BottleneckBlock(
              (conv1): Conv2d(
                2048, 512, kernel_size=(1, 1), stride=(1, 1), bias=False
                (norm): FrozenBatchNorm2d(num_features=512, eps=1e-05)
              )
              (conv2): Conv2d(
                512, 512, kernel_size=(3, 3), stride=(1, 1), padding=(1, 1), bias=False
                (norm): FrozenBatchNorm2d(num_features=512, eps=1e-05)
              )
              (conv3): Conv2d(
                512, 2048, kernel_size=(1, 1), stride=(1, 1), bias=False
                (norm): FrozenBatchNorm2d(num_features=2048, eps=1e-05)
              )
            )
            (2): BottleneckBlock(
              (conv1): Conv2d(
                2048, 512, kernel_size=(1, 1), stride=(1, 1), bias=False
                (norm): FrozenBatchNorm2d(num_features=512, eps=1e-05)
              )
              (conv2): Conv2d(
                512, 512, kernel_size=(3, 3), stride=(1, 1), padding=(1, 1), bias=False
                (norm): FrozenBatchNorm2d(num_features=512, eps=1e-05)
              )
              (conv3): Conv2d(
                512, 2048, kernel_size=(1, 1), stride=(1, 1), bias=False
                (norm): FrozenBatchNorm2d(num_features=2048, eps=1e-05)
              )
            )
          )
        )
      )
      (1): PositionEmbeddingSine()
    )
    (relation_query_embed): Embedding(600, 256)
    (object_query_embed): Embedding(300, 256)
  )
  (criterion): IterativeRelationCriterion(
    (matcher): SpeaQHungarianMatcher()
  )
)
[07/01 08:33:31] fvcore.common.checkpoint INFO: [Checkpointer] Loading from ./speaq_checkpoints/model_final.pth ...
[07/01 08:33:32] d2.data.common INFO: Serializing 26446 elements to byte tensors and concatenating them all ...
[07/01 08:33:34] d2.data.common INFO: Serialized dataset takes 69.66 MiB
…
